…
MSA output shape: torch.Size([1, 197, 768])
ViT output (logits) shape: torch.Size([1, 3])
ViT output (logits)      : tensor([[-0.6281, -0.1831, -0.9416]], grad_fn=<AddmmBackward0>)
==================================================================================================================================
Layer (type (var_name))                            Input Shape          Output Shape         Param #              Trainable
==================================================================================================================================
ViT (ViT)                                          [32, 3, 224, 224]    [32, 3]              --                   True
├─PatchEmbedding (patch_embed)                     [32, 3, 224, 224]    [32, 197, 768]       152,064              True
│    └─Conv2d (proj)                               [32, 3, 224, 224]    [32, 768, 14, 14]    590,592              True
│    └─Flatten (flatten)                           [32, 768, 14, 14]    [32, 768, 196]       --                   --
├─Sequential (encoder)                             [32, 197, 768]       [32, 197, 768]       --                   True
│    └─TransformerEncoderBlock (0)                 [32, 197, 768]       [32, 197, 768]       --                   True
│    │    └─MSABlock (msa_block)                   [32, 197, 768]       [32, 197, 768]       2,363,904            True
│    │    └─MLPBlock (mlp_block)                   [32, 197, 768]       [32, 197, 768]       4,723,968            True
│    └─TransformerEncoderBlock (1)                 [32, 197, 768]       [32, 197, 768]       --                   True
│    │    └─MSABlock (msa_block)                   [32, 197, 768]       [32, 197, 768]       2,363,904            True
│    │    └─MLPBlock (mlp_block)                   [32, 197, 768]       [32, 197, 768]       4,723,968            True
│    └─TransformerEncoderBlock (2)                 [32, 197, 768]       [32, 197, 768]       --                   True
│    │    └─MSABlock (msa_block)                   [32, 197, 768]       [32, 197, 768]       2,363,904            True
│    │    └─MLPBlock (mlp_block)                   [32, 197, 768]       [32, 197, 768]       4,723,968            True
│    └─TransformerEncoderBlock (3)                 [32, 197, 768]       [32, 197, 768]       --                   True
│    │    └─MSABlock (msa_block)                   [32, 197, 768]       [32, 197, 768]       2,363,904            True
│    │    └─MLPBlock (mlp_block)                   [32, 197, 768]       [32, 197, 768]       4,723,968            True
│    └─TransformerEncoderBlock (4)                 [32, 197, 768]       [32, 197, 768]       --                   True
│    │    └─MSABlock (msa_block)                   [32, 197, 768]       [32, 197, 768]       2,363,904            True
│    │    └─MLPBlock (mlp_block)                   [32, 197, 768]       [32, 197, 768]       4,723,968            True
│    └─TransformerEncoderBlock (5)                 [32, 197, 768]       [32, 197, 768]       --                   True
│    │    └─MSABlock (msa_block)                   [32, 197, 768]       [32, 197, 768]       2,363,904            True
│    │    └─MLPBlock (mlp_block)                   [32, 197, 768]       [32, 197, 768]       4,723,968            True
│    └─TransformerEncoderBlock (6)                 [32, 197, 768]       [32, 197, 768]       --                   True
│    │    └─MSABlock (msa_block)                   [32, 197, 768]       [32, 197, 768]       2,363,904            True
│    │    └─MLPBlock (mlp_block)                   [32, 197, 768]       [32, 197, 768]       4,723,968            True
│    └─TransformerEncoderBlock (7)                 [32, 197, 768]       [32, 197, 768]       --                   True
│    │    └─MSABlock (msa_block)                   [32, 197, 768]       [32, 197, 768]       2,363,904            True
│    │    └─MLPBlock (mlp_block)                   [32, 197, 768]       [32, 197, 768]       4,723,968            True
│    └─TransformerEncoderBlock (8)                 [32, 197, 768]       [32, 197, 768]       --                   True
│    │    └─MSABlock (msa_block)                   [32, 197, 768]       [32, 197, 768]       2,363,904            True
│    │    └─MLPBlock (mlp_block)                   [32, 197, 768]       [32, 197, 768]       4,723,968            True
│    └─TransformerEncoderBlock (9)                 [32, 197, 768]       [32, 197, 768]       --                   True
│    │    └─MSABlock (msa_block)                   [32, 197, 768]       [32, 197, 768]       2,363,904            True
│    │    └─MLPBlock (mlp_block)                   [32, 197, 768]       [32, 197, 768]       4,723,968            True
│    └─TransformerEncoderBlock (10)                [32, 197, 768]       [32, 197, 768]       --                   True
│    │    └─MSABlock (msa_block)                   [32, 197, 768]       [32, 197, 768]       2,363,904            True
│    │    └─MLPBlock (mlp_block)                   [32, 197, 768]       [32, 197, 768]       4,723,968            True
│    └─TransformerEncoderBlock (11)                [32, 197, 768]       [32, 197, 768]       --                   True
│    │    └─MSABlock (msa_block)                   [32, 197, 768]       [32, 197, 768]       2,363,904            True
│    │    └─MLPBlock (mlp_block)                   [32, 197, 768]       [32, 197, 768]       4,723,968            True
├─LayerNorm (norm)                                 [32, 768]            [32, 768]            1,536                True
├─Linear (head)                                    [32, 768]            [32, 3]              2,307                True
==================================================================================================================================
Total params: 85,800,963
Trainable params: 85,800,963
Non-trainable params: 0
Total mult-adds (Units.GIGABYTES): 5.52
==================================================================================================================================
…
