…
Class names: ['pizza', 'steak', 'sushi']
Train batches: 15 | Test batches: 5

── Original pretrained ViT-B/16 structure ──
============================================================================================================================================
Layer (type (var_name))                                      Input Shape          Output Shape         Param #              Trainable
============================================================================================================================================
VisionTransformer (VisionTransformer)                        [32, 3, 384, 384]    [32, 1000]           768                  True
├─Conv2d (conv_proj)                                         [32, 3, 384, 384]    [32, 768, 24, 24]    590,592              True
├─Encoder (encoder)                                          [32, 577, 768]       [32, 577, 768]       443,136              True
│    └─Dropout (dropout)                                     [32, 577, 768]       [32, 577, 768]       --                   --
│    └─Sequential (layers)                                   [32, 577, 768]       [32, 577, 768]       --                   True
│    │    └─EncoderBlock (encoder_layer_0)                   [32, 577, 768]       [32, 577, 768]       7,087,872            True
│    │    └─EncoderBlock (encoder_layer_1)                   [32, 577, 768]       [32, 577, 768]       7,087,872            True
│    │    └─EncoderBlock (encoder_layer_2)                   [32, 577, 768]       [32, 577, 768]       7,087,872            True
│    │    └─EncoderBlock (encoder_layer_3)                   [32, 577, 768]       [32, 577, 768]       7,087,872            True
│    │    └─EncoderBlock (encoder_layer_4)                   [32, 577, 768]       [32, 577, 768]       7,087,872            True
│    │    └─EncoderBlock (encoder_layer_5)                   [32, 577, 768]       [32, 577, 768]       7,087,872            True
│    │    └─EncoderBlock (encoder_layer_6)                   [32, 577, 768]       [32, 577, 768]       7,087,872            True
│    │    └─EncoderBlock (encoder_layer_7)                   [32, 577, 768]       [32, 577, 768]       7,087,872            True
│    │    └─EncoderBlock (encoder_layer_8)                   [32, 577, 768]       [32, 577, 768]       7,087,872            True
│    │    └─EncoderBlock (encoder_layer_9)                   [32, 577, 768]       [32, 577, 768]       7,087,872            True
│    │    └─EncoderBlock (encoder_layer_10)                  [32, 577, 768]       [32, 577, 768]       7,087,872            True
│    │    └─EncoderBlock (encoder_layer_11)                  [32, 577, 768]       [32, 577, 768]       7,087,872            True
│    └─LayerNorm (ln)                                        [32, 577, 768]       [32, 577, 768]       1,536                True
├─Sequential (heads)                                         [32, 768]            [32, 1000]           --                   True
│    └─Linear (head)                                         [32, 768]            [32, 1000]           769,000              True
============================================================================================================================================
Total params: 86,859,496
Trainable params: 86,859,496
Non-trainable params: 0
Total mult-adds (Units.GIGABYTES): 12.73
============================================================================================================================================
…
