…
============================================================
ResNet50 Model Summary
============================================================
============================================================================================================================================
Layer (type:depth-idx)                   Input Shape               Output Shape              Param #                   Trainable
============================================================================================================================================
ResNet                                   [1, 3, 224, 224]          [1, 10]                   --                        True
├─Conv2d: 1-1                            [1, 3, 224, 224]          [1, 64, 112, 112]         9,408                     True
├─BatchNorm2d: 1-2                       [1, 64, 112, 112]         [1, 64, 112, 112]         128                       True
├─ReLU: 1-3                              [1, 64, 112, 112]         [1, 64, 112, 112]         --                        --
├─MaxPool2d: 1-4                         [1, 64, 112, 112]         [1, 64, 56, 56]           --                        --
├─Sequential: 1-5                        [1, 64, 56, 56]           [1, 256, 56, 56]          --                        True
│    └─Bottleneck: 2-1                   [1, 64, 56, 56]           [1, 256, 56, 56]          75,008                    True
│    └─Bottleneck: 2-2                   [1, 256, 56, 56]          [1, 256, 56, 56]          70,400                    True
│    └─Bottleneck: 2-3                   [1, 256, 56, 56]          [1, 256, 56, 56]          70,400                    True
├─Sequential: 1-6                        [1, 256, 56, 56]          [1, 512, 28, 28]          --                        True
│    └─Bottleneck: 2-4                   [1, 256, 56, 56]          [1, 512, 28, 28]          379,392                   True
│    └─Bottleneck: 2-5                   [1, 512, 28, 28]          [1, 512, 28, 28]          280,064                   True
│    └─Bottleneck: 2-6                   [1, 512, 28, 28]          [1, 512, 28, 28]          280,064                   True
│    └─Bottleneck: 2-7                   [1, 512, 28, 28]          [1, 512, 28, 28]          280,064                   True
├─Sequential: 1-7                        [1, 512, 28, 28]          [1, 1024, 14, 14]         --                        True
│    └─Bottleneck: 2-8                   [1, 512, 28, 28]          [1, 1024, 14, 14]         1,512,448                 True
│    └─Bottleneck: 2-9                   [1, 1024, 14, 14]         [1, 1024, 14, 14]         1,117,184                 True
│    └─Bottleneck: 2-10                  [1, 1024, 14, 14]         [1, 1024, 14, 14]         1,117,184                 True
│    └─Bottleneck: 2-11                  [1, 1024, 14, 14]         [1, 1024, 14, 14]         1,117,184                 True
│    └─Bottleneck: 2-12                  [1, 1024, 14, 14]         [1, 1024, 14, 14]         1,117,184                 True
│    └─Bottleneck: 2-13                  [1, 1024, 14, 14]         [1, 1024, 14, 14]         1,117,184                 True
├─Sequential: 1-8                        [1, 1024, 14, 14]         [1, 2048, 7, 7]           --                        True
│    └─Bottleneck: 2-14                  [1, 1024, 14, 14]         [1, 2048, 7, 7]           6,039,552                 True
│    └─Bottleneck: 2-15                  [1, 2048, 7, 7]           [1, 2048, 7, 7]           4,462,592                 True
│    └─Bottleneck: 2-16                  [1, 2048, 7, 7]           [1, 2048, 7, 7]           4,462,592                 True
├─AdaptiveAvgPool2d: 1-9                 [1, 2048, 7, 7]           [1, 2048, 1, 1]           --                        --
├─Linear: 1-10                           [1, 2048]                 [1, 10]                   20,490                    True
============================================================================================================================================
Total params: 23,528,522
Trainable params: 23,528,522
Non-trainable params: 0
Total mult-adds (Units.GIGABYTES): 4.09
============================================================================================================================================
…
